sophie/model/sofie_20260213_173731.onnx (onnx, 415224 bytes, 9 tensors)

layer1.weight f4 [64, 1536]
-0.023916742 0.038868707 0.03396434 -0.021179626 0.009702718 0.027968667 0.06646079 -0.08068385
0.053691264 0.0035611796 0.0035791807 0.064855956 0.08404165 0.02222842 -0.04194551 0.065480456
-0.019320833 -0.005827781 0.04720645 -0.05450265 0.046513792 -0.01651249 -0.010413274 -0.054339133
0.027555134 0.042925306 -0.051980667 -0.057134423 -0.015943784 0.07312022 -0.08740268 0.025786892
-0.07576176 -0.019388817 -0.008786394 0.08297925 0.031757623 0.049046557 -0.03275577 0.03850867
-0.04169081 0.004671297 0.01472189 -0.025959462 -0.042891964 -0.01217749 -0.009699195 0.016834976
0.0027271674 0.10492788 -0.006208138 0.00981446 0.11849279 -0.055075802 -0.046902526 0.007418852
-0.018301252 0.049611323 -0.06136602 0.03133827 0.04218003 -0.020947248 -0.024366692 -0.024908174
0.03992476 0.02973183 -0.06671769 -0.041491095 0.007777156 -0.030109188 -0.0642285 0.067544416
-0.020031333 -0.006573558 0.05391406 0.0026433677 0.07143146 -0.0535046 -0.0644442 -0.013995536
-0.02168462 -0.009788255 0.048255652 -0.04102189 0.016651992 0.028125638 0.07560588 -0.027341839
-0.050853077 0.055592548 -0.024372624 0.04365235 0.008221857 -0.050000705 -0.071180835 0.048981413
-0.04792638 0.024707552 0.049284074 -0.03806996 0.07293202 0.07394921 0.060445428 -0.07822419
0.047812596 0.035040904 -0.03730466 0.05801741 0.02997403 0.016856601 -0.08174706 -0.030953342
-0.006783316 0.07398635 0.022827134 -0.06373032 0.06794322 -0.030528214 0.0073915645 -0.039434034
-0.008826762 0.05161902 -0.023285212 -0.03456042 -0.009239232 0.045254145 -0.05198669 -0.0028596134
-0.0679904 0.00731513 -0.052976295 0.064357616 0.038312826 0.06656314 -0.017520253 0.035161853
-0.016871987 0.009829907 0.04712979 -0.012799081 -0.020813134 -0.012202031 -0.03147784 -0.03591495
0.0049978746 0.033279285 4.1668605e-05 0.060832117 0.09972124 -0.06867206 -0.010955096 0.004450542
-0.00701666 0.045045774 -0.073753215 -0.0016023678 0.040083658 -0.089559875 0.022907127 -0.039649863
-0.0048153326 0.045246117 0.017914878 -0.09175214 -0.050378006 0.008913837 0.0791691 0.036626417
-0.017987628 0.012216352 0.04328564 0.017370977 0.021738553 -0.034121756 -0.051392402 -0.06622822
-0.016907904 0.033841945 0.03926817 -0.1042324 0.008222008 0.04416811 0.029820781 -0.012494508
0.019195922 0.009714093 0.009673261 0.014352273 0.052468188 -0.01780501 -0.066007785 0.044982478
0.00702826 0.054420203 0.018088864 0.0544036 0.0657051 0.046586532 0.0053230585 -0.03681139
-0.017538933 0.001136307 -0.062401894 -0.02303098 0.015810115 -0.030155156 -0.058070354 0.026726916
-0.028407807 0.042486172 0.01480706 -0.044512287 0.06913182 0.008264725 -0.030303957 -0.05445714
-0.05181833 0.05046775 -0.041323915 -0.0092543205 -0.02682047 0.020134727 -0.08768975 -0.01595764
-0.04926818 0.012560337 -0.01895975 0.047672007 0.009340454 0.06769533 -0.042165045 0.021676704
-0.017048998 -0.062615044 0.033331703 -0.03445371 -0.0428877 -0.040940713 -0.015134549 0.009629551
0.008451062 0.011669477 -0.04631224 0.058393296 0.08360516 -0.086215764 -0.007289666 0.026584776
-0.05873851 0.027606128 -0.06276006 0.004556776 0.043333612 -0.031901915 0.008770639 -0.02827621
00000000: 0bed c3bc cb34 1f3d 311e 0b3d e580 adbc
00000010: 26f8 1e3c 8c1e e53c 981c 883d 933d a5bd
00000020: 5feb 5b3d ae62 693b b090 6a3b 33d3 843d
00000030: 071e ac3d 6018 b63c 0ecf 2bbd 9e1a 863d
00000040: b946 9ebc f8f6 bebb 8d5b 413d 2c3e 5fbd
00000050: 3f85 3e3d 3445 87bc 709c 2abc b692 5ebd
00000060: 4ebb e13c 72d2 2f3d aee9 54bd c905 6abd
00000070: 8a9c 82bc 0ec0 953d 2d00 b3bd 083f d33c
00000080: fb28 9bbd 4cd5 9ebc cff4 0fbc 06f1 a93d
00000090: 4814 023d 0be5 483d ea2a 06bd 44bb 1d3d
000000a0: fcc3 2abd ae11 993b 1534 713c f0a8 d4bc
000000b0: 7caf 2fbd 1884 47bc 5fe9 1ebc 81e9 893c
000000c0: 47ba 323b 6ee4 d63d a36d cbbb d4cc 203c
000000d0: 59ac f23d 2a97 61bd dd1c 40bd d719 f33b
000000e0: 82ec 95bc 3e35 4b3d f05a 7bbd 8f5c 003d
000000f0: f8c4 2c3d 9099 abbc a89c c7bc 3a0c ccbc
00000100: 2588 233d 2b90 f33c 49a3 88bd 91f2 29bd
00000110: 83d7 fe3b 8ba7 f6bc 3b8a 83bd ba54 8a3d
00000120: c018 a4bc 0067 d7bb fdd4 5c3d 5a3c 2d3b
00000130: a84a 923d a427 5bbd 52fb 83bd 884d 65bc
00000140: f2a3 b1bc eb5e 20bc b8a7 453d 9206 28bd
00000150: c269 883c bd67 e63c 41d7 9a3d fefb dfbc
00000160: 514b 50bd 03b5 633d 19a9 c7bc cecc 323d
00000170: f8b4 063c 8acd 4cbd 42c7 91bd bca0 483d
00000180: 744e 44bd 7e67 ca3c 19de 493d 3fef 1bbd
00000190: 625d 953d af72 973d a095 773d 0134 a0bd
000001a0: 24d7 433d 0d87 0f3d c5cc 18bd aaa3 6d3d
000001b0: 198c f53c db16 8a3c 016b a7bd dd91 fdbc
000001c0: 9446 debb 2886 973d f8ff ba3c 0b85 82bd
000001d0: d125 8b3d 4e16 fabc f034 f23b 9585 21bd
000001e0: 209e 10bc 776e 533d a1c0 bebc 3a8f 0dbd
000001f0: 2660 17bc 695c 393d ffef 54bd 5a68 3bbb
00000200: 8d3e 8bbd c2b3 ef3b acfd 58bd edcd 833d
00000210: e9ed 1c3d 4152 883d a286 8fbc e005 103d
00000220: 1f37 8abc 9e0d 213c 2b0b 413d 3db3 51bc
00000230: 4e80 aabc 07eb 47bc e8ee 00bd 8e1b 13bd
00000240: 36c5 a33b dc4f 083d 53c5 2e38 192b 793d
00000250: a63a cc3d f0a3 8cbd 017d 33bc dad5 913b
00000260: 03ec e5bb eb81 383d ed0b 97bd 8b06 d2ba
00000270: c32e 243d 2b6b b7bd baa7 bb3c e567 22bd
00000280: f0c9 9dbb fe53 393d 39c2 923c 8ce8 bbbd
00000290: 2b59 4ebd 580b 123c 6923 a23d 9505 163d
000002a0: ca5a 93bc 1827 483c 494c 313d 944d 8e3c
000002b0: 0d15 b23c 41c3 0bbd d780 52bd a9a2 87bd
000002c0: 7282 8abc da9d 0a3d a9d7 203d cc77 d5bd
000002d0: 9ab5 063c 9fe9 343d b64a f43c c4b5 4cbc
000002e0: c440 9d3c dc27 1f3c 997c 1e3c cc25 6b3c
000002f0: e2e8 563d d0db 91bc 172f 87bd 8c3f 383d
00000300: 514d e63b b8e7 5e3d 192f 943c 4fd6 5e3d
00000310: 6590 863d 85d1 3e3d 0d6d ae3b 8ac7 16bd
00000320: cfad 8fbc 23f0 943a 2199 7fbd 77ab bcbc
00000330: 3784 813c f207 f7bc 2edb 6dbd 68f2 da3c
00000340: 7db7 e8bc fb05 2e3d 5099 723c 8452 36bd
00000350: fc94 8d3d c568 073c 0140 f8bc 730e 5fbd
00000360: 753f 54bd 45b7 4e3d 4443 29bd 6f9f 17bc
00000370: 9ab6 dbbc 95f1 a43c af96 b3bd 99b9 82bc
00000380: 6ecd 49bd dfc9 4d3c 7a51 9bbc b943 433d
00000390: b408 193c d9a3 8a3d 41b5 2cbd 5893 b13c
000003a0: 57aa 8bbc 513c 80bd d386 083d 551f 0dbd
000003b0: 03ab 2fbd 73b1 27bd e6f6 77bc 44c5 1d3c
000003c0: 5376 0a3c 5631 3f3c e7b1 3dbd cf2d 6f3d
000003d0: 2f39 ab3d e491 b0bd 27de eebb 51c8 d93c
000003e0: cb97 70bd 3f26 e23c 5988 80bd 0251 953b
000003f0: 967e 313d 95ab 02bd bab2 0f3c 83a3 e7bc

layer1.bias f4 [64]
0.05386714 0.040492415 0.02491874 0.036325525 0.05185044 0.030406434 0.018016146 0.025826683
0.02886272 -0.012588109 -0.0021981357 0.023835478 0.006712739 0.021997146 0.018446634 -0.0019008468
0.029845156 0.008842341 0.028686054 0.022001846 0.0033350165 0.018344153 0.012680766 -0.009145923
0.05849767 0.0018148164 0.030995348 -0.007073672 0.01962743 0.021108266 -0.002419127 -0.002518712
-0.0063188635 0.027338738 0.021901496 0.015415755 0.0773549 0.06394647 0.0027537388 0.06510665
-0.012357115 0.03767682 0.039079584 0.030493112 -0.00059251563 0.015627159 -0.007059763 0.003576312
0.018202625 0.015243229 -0.0020142614 0.0065446193 0.0010079197 0.055466548 0.03676152 0.0063754395
0.007935737 0.02850776 -0.00037718308 0.043262724 0.009280152 0.0029898756 -0.0019698315 0.03349395
00000000: caa3 5c3d 60db 253d 6322 cc3c 13ca 143d
00000010: 2161 543d ea16 f93c 9996 933c 7b92 d33c
00000020: 8371 ec3c 5b3e 4ebc 990e 10bb 9f42 c33c
00000030: 89f6 db3b 5c33 b43c 651d 973c d625 f9ba
00000040: d47d f43c 77df 103c 04ff ea3c 373d b43c
00000050: 4b90 5a3b 7a46 963c fdc2 4f3c c8d8 15bc
00000060: 419b 6f3d 22df ed3a f5e9 fd3c 43ca e7bb
00000070: b4c9 a03c 3eeb ac3c 378a 1ebb fa10 25bb
00000080: 780e cfbb 7df5 df3c c46a b33c 5d92 7c3c
00000090: 3f6c 9e3d 5ef6 823d 1278 343b a356 853d
000000a0: 7f75 4abc 0253 1a3d ea11 203d b1cc f93c
000000b0: 0d53 1bba 8704 803c 9655 e7bb 8f60 6a3b
000000c0: ac1d 953c bdbe 793c b301 04bb 3f74 d63b
000000d0: 2c1c 843a e430 633d 3f93 163d 10e9 d03b
000000e0: e504 023c 1b89 e93c a8c0 c5b9 4134 313d
000000f0: c70b 183c caf1 433b 4a18 01bb f430 093d

layernorm1.weight f4 [64]
0.98606724 0.98913944 1.0820644 1.0445923 1.0137796 1.0400008 1.1357933 1.0183997
1.0543765 1.1113898 1.1716079 0.98939747 1.0846624 1.0989963 1.0232388 1.0124246
1.0327392 1.0340757 1.1691597 1.016771 0.99933076 1.0254524 1.0202208 1.006657
1.0906851 0.9785321 1.1159478 1.0241812 1.1281756 1.0175343 0.99256486 0.97705096
1.0330733 1.0388141 1.0287083 1.0136821 1.019015 1.0077132 0.9994466 1.0875385
1.0403663 1.0695399 0.97385037 0.9709849 1.0562271 0.9713071 1.0201308 1.0603778
1.0182598 1.0100092 0.994344 1.0444286 0.99209774 1.04105 1.0206516 1.0709065
1.0012938 1.0176148 1.0076431 1.0286618 1.081623 1.0426241 1.0512253 1.0035659
00000000: e76e 7c3f 3e38 7d3f 1681 8a3f 33b5 853f
00000010: 88c3 813f bf1e 853f ad61 913f ec5a 823f
00000020: cff5 863f 0542 8e3f 3ff7 953f 2749 7d3f
00000030: 38d6 8a3f e9ab 8c3f 7df9 823f 2197 813f
00000040: cc30 843f 985c 843f 06a7 953f 8d25 823f
00000050: 24d4 7f3f 0642 833f 9896 823f 23da 803f
00000060: 929b 8b3f 1481 7a3f 61d7 8e3f 5f18 833f
00000070: 0f68 903f 903e 823f bb18 7e3f 0320 7a3f
00000080: bf3b 843f dcf7 843f b7ac 833f 56c0 813f
00000090: 156f 823f bffc 803f bbdb 7f3f 7634 8b3f
000000a0: b92a 853f afe6 883f 424e 793f 7792 783f
000000b0: 7332 873f 95a7 783f a593 823f 76ba 873f
000000c0: 5656 823f fb47 813f 548d 7e3f d6af 853f
000000d0: 1efa 7d3f 2041 853f b6a4 823f 7713 893f
000000e0: 652a 803f 3441 823f 73fa 803f 31ab 833f
000000f0: 9f72 8a3f b574 853f 8d8e 863f d974 803f

layernorm1.bias f4 [64]
0.014164253 0.020792572 0.025372636 0.01058867 0.0025172625 0.016895544 0.024308164 -0.008245761
0.01949747 0.012772986 0.02892204 -0.023984564 0.03361011 -0.008268012 0.008059263 0.005181653
0.029930875 0.018113298 0.03244006 0.015752349 -0.0081683 0.020249946 0.02535117 -0.022132514
0.02742768 0.00059644214 0.026661761 0.017921457 0.0314593 0.016171984 -0.005792117 -0.020019557
0.006677954 0.01668788 0.03156555 0.022291409 0.021371437 0.0241794 0.009751852 0.022984833
0.030424565 0.01951299 -0.01939664 0.0134316785 0.025917184 -0.035735928 0.003687762 0.026987672
-0.008935494 -0.008068653 0.020513194 0.02432504 -0.06540182 0.0242083 0.022597661 0.01914296
0.007467411 -0.005838047 0.010075109 0.034250822 0.031065943 0.021941857 0.017140692 0.014620675
00000000: 2f11 683c 2f55 aa3c 46da cf3c 1a7c 2d3c
00000010: a8f8 243b 8668 8a3c ea21 c73c 3a19 07bc
00000020: 29b9 9f3c c945 513c eaed ec3c 477b c4bc
00000030: c1aa 093d 8e76 07bc 000b 043c dbca a93b
00000040: 9831 f53c 5762 943c dedf 043d 120b 813c
00000050: 55d4 05bc 37e3 a53c 42ad cf3c 3f4f b5bc
00000060: 04b0 e03c 8e5a 1c3a c469 da3c 05d0 923c
00000070: 78db 003d 1c7b 843c cdcb bdbb 0e00 a4bc
00000080: bdd2 da3b 05b5 883c e14a 013d 799c b63c
00000090: 2713 af3c e113 c63c 3bc6 1f3c b04a bc3c
000000a0: f03c f93c b5d9 9f3c b4e5 9ebc 8b10 5c3c
000000b0: 4650 d43c d65f 12bd 61ae 713b 4015 dd3c
000000c0: 2e66 12bc 6232 04bc 490b a83c 4e45 c73c
000000d0: 64f1 85bd 7c50 c63c bb1e b93c b2d1 9c3c
000000e0: 2fb1 f43b 164d bfbb 1212 253c 974a 0c3d
000000f0: 017e fe3c 69bf b33c a36a 8c3c 8e8b 6f3c

blocks.0.fcn_layer.weight f4 [64, 64]
0.08325968 0.07163309 0.19105725 0.05761384 0.11132125 -0.014787205 -0.19780263 0.027738119
0.05643923 0.019297365 -0.15974268 -0.012913643 0.025551798 0.004886977 -0.08770005 -0.04418025
0.019441104 0.028209768 -0.025015326 -0.042929716 -0.07501351 -0.1435555 -0.19103184 -0.10966647
0.18563852 0.008206915 0.16312546 -9.945056e-05 -0.030639144 0.019432243 -0.075515285 -0.061637726
-0.08735745 0.031974036 0.013381328 -0.14196686 0.14103585 0.03751158 0.025605058 0.18549664
0.04762421 0.106041275 0.05297596 -0.0026295849 -0.20217773 0.086785994 0.03071156 -0.16617773
-0.09693463 0.068875514 0.081347205 -0.19242443 0.07507772 -0.049251996 -0.13942897 -0.10190189
0.018290034 0.096576974 -0.09466828 -0.0011785406 0.011298577 -0.17718244 -0.10522996 0.07494994
0.11421555 0.07610935 0.16756299 -0.101732604 0.05190938 -0.092902556 -0.1645874 0.03863579
0.13002713 -0.17998026 -0.21919984 0.028603483 -0.16003002 -0.1549404 -0.04912358 0.010333911
0.0029408773 0.06482874 -0.015111649 0.07184744 -0.10494826 -0.11718667 -0.071577474 -0.00012255058
0.15299484 0.07284971 0.16329794 -0.053278275 -0.12830314 -0.066983536 0.0002756329 0.042348698
-0.13715567 -0.013860808 -0.15964118 0.04297818 0.14449556 -0.087497845 -0.07528476 0.2031104
-0.11625569 0.1891418 -0.030520668 -0.0016233155 -0.059258197 0.12585828 -0.22664379 -0.015327727
-0.028886897 -0.02120794 0.07443951 -0.1561889 0.054053966 -0.025562204 -0.06500833 -0.21038182
-0.049260348 0.045134798 0.037558295 0.08393334 0.03178484 0.031983387 -0.13501397 0.11080187
0.15589851 0.14752004 0.040237088 -0.079069905 0.115546055 -0.04023327 -0.055172242 -0.106631085
0.0979315 0.09366689 -0.18400791 -0.055231504 -0.0055902232 0.074928135 -0.11461478 -0.10779419
0.10960221 -0.11753048 -0.13587658 0.041712534 -0.04824078 0.005181997 -0.104122095 -0.051680807
0.0035290837 0.13080618 0.12334736 -0.057456736 -0.12052684 0.15026388 -0.0103452355 -0.11151136
-0.14853883 0.039758176 -0.065123 0.072148025 0.06747778 -0.07100132 -0.06024431 0.18060367
-0.09683815 0.059278026 -0.028659007 0.05208139 -0.12652655 -0.010217684 0.033604693 -0.04005909
-0.16760775 -0.027680581 -0.09871235 -0.09355677 -0.10484657 0.15907656 -0.103294216 -0.023034003
0.011606392 0.020680428 -0.09331575 -0.08177487 0.06746608 -0.013549489 -0.0822157 0.081957035
0.07880877 0.10934188 -0.013062766 0.042028297 -0.03312879 0.09458232 0.25928298 0.1293915
0.013097931 0.054921277 -0.04953952 0.12589179 -0.00033194805 0.2073273 0.017918926 0.031984884
-0.051937755 0.1225974 0.30386198 -0.09418192 -0.047601644 0.022645824 0.034554902 0.0044658137
-0.08990862 0.0040237927 -0.093394995 0.07582206 0.23585549 0.029722929 0.006648192 0.033279423
-0.12157644 0.038367122 0.015640905 0.013667728 0.08157538 -0.07344714 0.12583964 -0.003666649
0.10035694 -0.10510413 0.06879459 -0.049277898 0.065165855 0.055554707 0.019731356 0.1714815
-0.03828645 0.073128834 0.000404979 -0.009814141 0.09782519 -0.0012940734 -0.075104706 0.19292721
-0.032727264 0.011647975 -0.021938998 -0.042885534 0.21106334 0.0059911353 0.13774967 -0.045121662
00000000: 0d84 aa3d 5fb4 923d 83a4 433e 7dfc 6b3d
00000010: 65fc e33d 0846 72bc c68c 4abe 0d3b e33c
00000020: d22c 673d 8215 9e3c 9693 23be bf93 53bc
00000030: 0152 d13c ef22 a03b 159c b3bd 5af6 34bd
00000040: f342 9f3c 2c18 e73c f1ec ccbc 12d7 2fbd
00000050: afa0 99bd 3700 13be da9d 43be d098 e0bd
00000060: 0618 3e3e 4c76 063c 5c0a 273e 1d90 d0b8
00000070: f1fe fabc 5e30 9f3c c2a7 9abd d777 7cbd
00000080: 76e8 b2bd 35f7 023d 5c3d 5b3c c35f 11be
00000090: b46b 103e bea5 193d b3c1 d13c d5f2 3d3e
000000a0: 9b11 433d 2b2c d93d 52fd 583d 1d55 2cbb
000000b0: ae07 4fbe dbbc b13d cf96 fb3c 7f2a 2abe
000000c0: aa85 c6bd 9b0e 8d3d 5d99 a63d e90a 45be
000000d0: 59c2 993d 76bc 49bd 78c6 0ebe f0b1 d0bd
000000e0: fbd4 953c 26ca c53d 71e1 c1bd 4379 9aba
000000f0: ab1d 393c 506f 35be ce82 d7bd 5b7f 993d
00000100: d8e9 e93d 38df 9b3d a295 2b3e 2f59 d0bd
00000110: ee9e 543d b243 bebd 9989 28be 9040 1e3d
00000120: d525 053e bf4c 38be ec75 60be da51 ea3c
00000130: e9de 23be b2a8 1ebe cf35 49bd 904f 293c
00000140: bcbb 403b eec4 843d da96 77bc c024 933d
00000150: 1def d6bd 91ff efbd 3697 92bd ec80 00b9
00000160: aeaa 1c3e 3b32 953d 9337 273e 523a 5abd
00000170: e661 03be aa2e 89bd d282 9039 d475 2d3d
00000180: 8972 0cbe 7118 63bc fa78 23be e309 303d
00000190: a5f6 133e 1232 b3bd e52e 9abd 2cfc 4f3e
000001a0: 7717 eebd 63ae 413e 7b06 fabc 6ec5 d4ba
000001b0: b9b8 72bd fee0 003e 4f15 68be 2621 7bbc
000001c0: 37a4 ecbc 46bc adbc be73 983d fcef 1fbe
000001d0: b167 5d3d d467 d1bc 1623 85bd 556e 57be
000001e0: 38c5 49bd 44df 383d bad6 193d 3ee5 ab3d
000001f0: d230 023d 0301 033d 1a41 0abe 17ec e23d
00000200: dca3 1f3e 7e0f 173e a5cf 243d 67ef a1bd
00000210: 69a3 ec3d a4cb 24bd 4afc 61bd 6661 dabd
00000220: 4f90 c83d 6dd4 bf3d 926c 3cbe 6e3a 62bd
00000230: 312e b7bb ec73 993d 27bb eabd 33c3 dcbd
00000240: 2077 e03d d2b3 f0bd 3b23 0bbe c3da 2a3d
00000250: 2098 45bd becd a93b f73d d5bd 41af 53bd
00000260: 3348 673b 0ef2 053e 8a9d fc3d c157 6bbd
00000270: c7d6 f6bd c6de 193e 107f 29bc 1160 e4bd
00000280: 901a 18be 78d9 223d 355f 85bd 58c2 933d
00000290: ca31 8a3d 2469 91bd bdc2 76bd 2bf0 383e
000002a0: 1453 c6bd 84cd 723d 4bc6 eabc 4c53 553d
000002b0: 2d90 01be 1368 27bc 13a5 093d 0015 24bd
000002c0: 5ea1 2bbe 63c2 e2bc b329 cabd b19a bfbd
000002d0: ccb9 d6bd f7e4 223e eb8b d3bd ceb1 bcbc
000002e0: bd28 3e3c 006a a93c 541c bfbd 9579 a7bd
000002f0: a82b 8a3d adfe 5dbc b460 a8bd 17d9 a73d
00000300: 7e66 a13d a3ee df3d 3605 56bc dd25 2c3d
00000310: 0eb2 07bd 60b4 c13d bdc0 843e 357f 043e
00000320: b498 563c 22f5 603d f4e9 4abd c7e9 003e
00000330: 5009 aeb9 9c4d 543e b6ca 923c 9502 033d
00000340: afbc 54bd 5814 fb3d cc93 9b3e 73e2 c0bd
00000350: f1f9 42bd bc83 b93c 7189 0d3d f655 923b
00000360: 0322 b8bd 05da 833b e045 bfbd 9948 9b3d
00000370: 1a84 713e 807d f33c 14d9 d93b 0150 083d
00000380: 12fd f8bd d826 1d3d 5b21 803c 9bee 5f3c
00000390: fe10 a73d 746b 96bd 1bdc 003e 2a4c 70bb
000003a0: f087 cd3d d640 d7bd 2ee4 8c3d 9fd7 49bd
000003b0: ad75 853d 558d 633d a7a3 a13c d998 2f3e
000003c0: 41d2 1cbd 92c4 953d 5c53 d439 7ecb 20bc
000003d0: 9358 c83d e69d a9ba 7fd0 99bd b68e 453e
000003e0: 060d 06bd 26d7 3e3c 6ab9 b3bc bea8 2fbd
000003f0: fd20 583e 4951 c43b 400e 0d3e 7ed1 38bd

blocks.0.fcn_layer.bias f4 [64]
-0.08004711 -0.07138325 -0.0608307 -0.105148874 0.007910875 0.07229702 0.08668401 -0.008641369
-0.07360883 -0.0029526977 0.010364811 0.0710164 0.041094385 -0.05739234 0.083952576 -0.05333461
0.08164154 -0.0036612484 -0.0789766 -0.010264263 0.018162252 0.10519284 -0.06764261 0.08805095
-0.0705121 0.046747804 -0.033327036 0.07801171 0.029566308 0.043297373 0.060933404 0.009792879
0.05701864 -0.027253386 0.022246622 0.036835283 -0.04469439 -0.046967395 0.07129316 -0.10907741
0.08678518 -0.106188 0.011386154 0.03188486 -0.062269025 -0.11166794 -0.105862945 -0.015830876
0.08826434 -0.096157 -0.031458464 0.035493415 -0.02404207 0.026425337 -0.0038362967 0.043074228
0.10106481 -0.09367872 0.008905518 0.11695681 0.020292725 0.07442928 -0.017448325 0.121049404
00000000: bdef a3bd 6231 92bd 9d29 79bd 4b58 d7bd
00000010: 9d9c 013c 7610 943d 6387 b13d 8794 0dbc
00000020: 3ac0 96bd 0c82 41bb 2bd1 293c 0c71 913d
00000030: 9652 283d 3b14 6bbd 54ef ab3d 6475 5abd
00000040: ae33 a73d 8ef1 6fbb 7cbe a1bd 702b 28bc
00000050: 01c9 943c 586f d73d 3588 8abd 0e54 b43d
00000060: a668 90bd a07a 3f3d ee81 08bd 9ac4 9f3d
00000070: 0b35 f23c 9658 313d 4e95 793d 5072 203c
00000080: 618c 693d 7e42 dfbc 8c3e b63c 98e0 163d
00000090: 7711 37bd e260 40bd 2602 923d fa63 dfbd
000000a0: 6ebc b13d 1879 d9bd fe8c 3a3c b399 023d
000000b0: ce0d 7fbd 29b2 e4bd acce d8bd c1af 81bc
000000c0: efc3 b43d f6ed c4bd 97da 00bd 8b61 113d
000000d0: e0f3 c4bc f379 d83c 616a 7bbb 9a6e 303d
000000e0: 11fb ce3d a1da bfbd 73e8 113c 0d87 ef3d
000000f0: ee3c a63c 616e 983d caef 8ebc c0e8 f73d

blocks.0.layer_norm.weight f4 [64]
1.0829532 1.1421664 1.0872257 1.0429701 1.1269008 1.0278256 1.0090498 1.159347
1.0858288 1.1340859 1.037577 1.1459439 1.0502688 1.1699414 1.0166646 1.0012845
1.0636134 1.066334 1.0462407 1.083507 1.0540131 1.1012301 1.074988 1.0051194
1.0890702 1.0745983 1.074256 0.9240526 1.0880805 1.061952 1.08169 1.1130906
1.0720072 1.0626316 1.1181096 1.0222902 1.160826 1.1099782 1.028468 1.1288271
1.0469697 1.0958492 1.0461909 1.1560307 1.1405413 1.1751473 1.0535114 1.2141827
1.0259154 1.0552975 1.0403218 0.9992975 1.0476338 0.99079055 1.0222609 1.0190116
1.0253252 1.0978137 1.1229639 1.004905 1.0770453 1.0257584 1.0682093 1.1241231
00000000: 369e 8a3f 8232 923f 362a 8b3f 0b80 853f
00000010: 493e 903f ca8f 833f 8b28 813f 7c65 943f
00000020: 70fc 8a3f ba29 913f 53cf 843f 4aae 923f
00000030: 356f 863f a4c0 953f 1122 823f 172a 803f
00000040: 7c24 883f a27d 883f 37eb 853f 5bb0 8a3f
00000050: e7e9 863f 1cf5 8c3f 3599 893f c1a7 803f
00000060: a766 8b3f 708c 893f 3881 893f b68e 6c3f
00000070: 3946 8b3f 0bee 873f d174 8a3f c179 8e3f
00000080: 8837 893f 5004 883f 371e 8f3f 68da 823f
00000090: f295 943f c413 8e3f d7a4 833f 687d 903f
000000a0: 1a03 863f c944 8c3f 95e9 853f d0f8 933f
000000b0: 42fd 913f 3a6b 963f 76d9 863f 576a 9b3f
000000c0: 3251 833f fd13 873f 4429 853f f6d1 7f3f
000000d0: dd18 863f 73a4 7d3f 72d9 823f f96e 823f
000000e0: db3d 833f 2985 8c3f 48bd 8f3f baa0 803f
000000f0: 9fdc 893f 0d4c 833f 15bb 883f 44e3 8f3f

blocks.0.layer_norm.bias f4 [64]
0.10918398 0.12917674 0.11942678 0.03364912 0.11087372 0.014637444 0.009046026 0.12276199
0.04578033 0.09921325 0.016214337 0.1261397 0.00449631 0.12266909 0.039977726 -0.0001517795
0.07955066 0.030164022 -0.026193777 0.0353531 0.031697366 0.01640291 0.10260674 0.008760301
0.117050946 0.032386016 0.057253562 -0.12381938 0.04788922 0.033787172 0.009815839 0.12800841
0.09396832 0.09345851 0.10726089 0.0018862812 0.06978945 0.12100059 0.01412054 0.098849535
-0.034030523 0.056828875 0.017614886 0.11485872 0.114564545 0.10577873 0.028716974 0.13915913
-0.0108336145 0.024695098 0.026325222 -0.04722002 -0.013524313 -0.022883276 -0.01754502 0.04588215
0.00017971625 0.09048713 0.10637789 -0.05037996 0.042297643 0.011613007 0.028015658 0.09807475
00000000: da9b df3d e846 043e 0796 f43d a9d3 093d
00000010: c311 e33d e4d1 6f3c c835 143c a36a fb3d
00000020: 2884 3b3d 5130 cb3d eed3 843c c42a 013e
00000030: c855 933b ef39 fb3d afbf 233d 0027 1fb9
00000040: 75eb a23d 8a1a f73c 5594 d6bc 6ace 103d
00000050: 19d5 013d 655f 863c 7c23 d23d 5e87 0f3c
00000060: 68b8 ef3d 33a7 043d b682 6a3d 0495 fdbd
00000070: 7d27 443d 6b64 0a3d 9dd2 203c a314 033e
00000080: 7672 c03d 2d67 bf3d 99ab db3d 183d f73a
00000090: c5ed 8e3d 28cf f73d d659 673c a071 ca3d
000000a0: 9763 0bbd 65c5 683d 184d 903c 0c3b eb3d
000000b0: d1a0 ea3d 85a2 d83d dc3f eb3c bb7f 0e3e
000000c0: 797f 31bc 604d ca3c fea7 d73c c869 41bd
000000d0: 1595 5dbc b575 bbbc 93ba 8fbc ecee 3b3d
000000e0: 3772 3c39 5151 b93d a7dc d93d 385b 4ebd
000000f0: 4b40 2d3d 7b44 3e3c 1881 e53c 6adb c83d

last_layer.weight f4 [1, 64]
-0.19175078 -0.24067175 -0.16054179 0.14808619 -0.17566931 0.10519074 0.080082186 -0.21290182
0.17863819 -0.20497176 0.16013604 -0.25744662 0.06919954 -0.24495606 0.04945538 0.0599415
-0.15522741 0.10605374 0.093127556 0.20007889 0.1370619 0.090740226 -0.13679156 0.040806398
-0.13953719 0.16360095 0.18826838 0.031722993 0.077823885 0.112511195 0.1157146 -0.18678933
-0.1884059 -0.14758752 -0.23573823 0.12523837 0.21919416 -0.20461051 0.10840823 0.21210918
0.062549934 0.14830191 0.16340335 -0.2392157 -0.25707048 0.24680816 0.11102677 -0.26162055
0.13448563 0.11947233 0.07680328 0.06912004 0.06274706 0.07395274 0.06398545 0.07451448
0.11125974 -0.17291053 -0.22083895 0.036832094 0.1486951 0.10969146 0.10082937 -0.22378395
00000000: 515a 44be a872 76be 1165 24be e8a3 173e
00000010: a8e2 33be 3e6e d73d 2102 a43d ef02 5abe
00000020: eeec 363e 1ee4 51be b4fa 233e 0bd0 83be
00000030: 7db8 8d3d c3d5 7abe b991 4a3d 3885 753d
00000040: eff3 1ebe b432 d93d a9b9 be3d 7be1 4c3e
00000050: f459 0c3e 03d6 b93d 1613 0cbe 9c24 273d
00000060: d6e2 0ebe 0287 273e 6dc9 403e f8ef 013d
00000070: 2162 9f3d 456c e63d c7fb ec3d b445 3fbe
00000080: 7aed 40be 2f21 17be 5d65 71be 7d3e 003e
00000090: 6f74 603e 6b85 51be 2205 de3d 2633 593e
000000a0: 2e1a 803d 75dc 173e 3553 273e f6f4 74be
000000b0: be9e 83be 47bb 7c3e 0162 e33d 21f3 85be
000000c0: 9ab6 093e e9ad f43d 0a4b 9d3d cf8e 8d3d
000000d0: 8881 803d 8974 973d ce0a 833d 0c9b 983d
000000e0: 26dc e33d 750f 31be 9b23 62be 40dd 163d
000000f0: 8743 183e eba5 e03d a17f ce3d 9f27 65be
